{"format": "layers-model", "generatedBy": "keras v2.2.4-tf", "convertedBy": "TensorFlow.js Converter v1.7.4r1", "modelTopology": {"keras_version": "2.2.4-tf", "backend": "tensorflow", "model_config": {"class_name": "Sequential", "config": {"name": "sequential_9", "layers": [{"class_name": "DenseFeatures", "config": {"name": "dense_features_9", "trainable": true, "dtype": "float32", "feature_columns": [{"class_name": "BucketizedColumn", "config": {"source_column": {"class_name": "NumericColumn", "config": {"key": "area", "shape": [1], "default_value": null, "dtype": "float32", "normalizer_fn": null}}, "boundaries": [… "class_name": "IndicatorColumn", "config": {"categorical_column": {"class_name": "VocabularyListCategoricalColumn", "config": {"key": "condition", "vocabulary_list": ["All amenities", "Partial amenities", "Without amenities"], "dtype": "string", "default_value": -1, "num_oov_buckets": 0}}}}, {"class_name": "IndicatorColumn", "config": {"categorical_column": {"class_name": "VocabularyListCategoricalColumn", "config": {"key": "district", "vocabulary_list": ["Purvciems", "Ziepniekkalns", "centrs", "\u0136engarags", "Teika", "Imanta", "Jugla", "Manga\u013ci", "Me\u017eciems", "Maskavas priek\u0161pils\u0113ta", "Zolit\u016bde", "Bolder\u0101ja", "Gr\u012bzi\u0146kalns", "Dreili\u0146i", "P\u013cavnieki", "Dzegu\u017ekalns", "\u0136\u012bpsala", "Krasta r-ns", "Kl\u012bversala", "Vecm\u012blgr\u0101vis", "\u0100genskalns", "Zasulauks", "Me\u017eaparks", "\u010ciekurkalns", "Sarkandaugava", "Daugavgr\u012bva", "I\u013c\u0123uciems", "Ber\u0123i", "\u0160\u0137irotava", "D\u0101rzciems", "Vecr\u012bga", "Bieri\u0146i", "Brek\u0161i", "Kundzi\u0146sala", "Jaunciems", "Tor\u0146akalns", "Manga\u013csala", "\u0160amp\u0113teris-Pleskod\u0101le", "Bukulti", "Voleri", "Vecdaugava", "Aplokciems", "Katlakalns", "Kleisti", "Vec\u0101\u0137i", "Jaunm\u012blgr\u0101vis", "VEF", "Valdlau\u010di"], "dtype": "string", "default_value": -1, "num_oov_buckets": 0}}}}, {"class_name": "NumericColumn", "config": {"key": "floor", "shape": [1], "default_value": null, "dtype": "float32", "normalizer_fn": null}}, {"class_name": "IndicatorColumn", "config": {"categorical_column": {"class_name": "VocabularyListCategoricalColumn", "config": {"key": "house_seria", "vocabulary_list": ["LT proj.", "602.", "P. kara", "Jaun.", "Specpr.", "Hru\u0161\u010d.", "119.", "M. \u0123im.", "Renov.", "103.", "Priv. m.", "467.", "Sta\u013cina", "104.", "\u010cehu pr."], "dtype": "string", "default_value": -1, "num_oov_buckets": 0}}}}, {"class_name": "IndicatorColumn", "config": {"categorical_column": {"class_name": "VocabularyListCategoricalColumn", "config": {"key": "house_type", "vocabulary_list": ["Brick-Panel", "Panel", "Wood", "Masonry", "Brick", "Panel-Brick"], "dtype": "string", "default_value": -1, "num_oov_buckets": 0}}}}, {"class_name": "IndicatorColumn", "config": {"categorical_column": {"class_name": "CrossedColumn", "config": {"keys": [{"class_name": "BucketizedColumn", "config": {"source_column": {"class_name": "NumericColumn", "config": {"key": "lat", "shape": [1], "default_value": null, "dtype": "float32", "normalizer_fn": null}}, "boundaries": [… "class_name": "BucketizedColumn", "config": {"source_column": {"class_name": "NumericColumn", "config": {"key": "lon", "shape": [1], "default_value": null, "dtype": "float32", "normalizer_fn": null}}, "boundaries": [… "hash_bucket_size": 2500, "hash_key": null}}}}, {"class_name": "IndicatorColumn", "config": {"categorical_column": {"class_name": "VocabularyListCategoricalColumn", "config": {"key": "op_type", "vocabulary_list": ["For rent", "For sale"], "dtype": "string", "default_value": -1, "num_oov_buckets": 0}}}}, {"class_name": "NumericColumn", "config": {"key": "rooms", "shape": [1], "default_value": null, "dtype": "float32", "normalizer_fn": null}}, {"class_name": "NumericColumn", "config": {"key": "total_floors", "shape": [1], "default_value": null, "dtype": "float32", "normalizer_fn": null}}]}}, {"class_name": "Dense", "config": {"name": "dense_48", "trainable": true, "dtype": "float32", "units": 128, "activation": "relu", "use_bias": true, "kernel_initializer": {"class_name": "VarianceScaling", "config": {"scale": 2.0, "mode": "fan_in", "distribution": "uniform", "seed": null}}, "bias_initializer": {"class_name": "Zeros", "config": {}}, "kernel_regularizer": null, "bias_regularizer": null, "activity_regularizer": null, "kernel_constraint": null, "bias_constraint": null}}, {"class_name": "Dropout", "config": {"name": "dropout_18", "trainable": true, "dtype": "float32", "rate": 0.3, "noise_shape": null, "seed": null}}, {"class_name": "Dense", "config": {"name": "dense_49", "trainable": true, "dtype": "float32", "units": 64, "activation": "relu", "use_bias": true, "kernel_initializer": {"class_name": "VarianceScaling", "config": {"scale": 2.0, "mode": "fan_in", "distribution": "uniform", "seed": null}}, "bias_initializer": {"class_name": "Zeros", "config": {}}, "kernel_regularizer": null, "bias_regularizer": null, "activity_regularizer": null, "kernel_constraint": null, "bias_constraint": null}}, {"class_name": "Dropout", "config": {"name": "dropout_19", "trainable": true, "dtype": "float32", "rate": 0.3, "noise_shape": null, "seed": null}}, {"class_name": "Dense", "config": {"name": "dense_50", "trainable": true, "dtype": "float32", "units": 16, "activation": "relu", "use_bias": true, "kernel_initializer": {"class_name": "VarianceScaling", "config": {"scale": 2.0, "mode": "fan_in", "distribution": "uniform", "seed": null}}, "bias_initializer": {"class_name": "Zeros", "config": {}}, "kernel_regularizer": null, "bias_regularizer": null, "activity_regularizer": null, "kernel_constraint": null, "bias_constraint": null}}, {"class_name": "Dense", "config": {"name": "dense_51", "trainable": true, "dtype": "float32", "units": 1, "activation": "relu", "use_bias": true, "kernel_initializer": {"class_name": "VarianceScaling", "config": {"scale": 2.0, "mode": "fan_in", "distribution": "uniform", "seed": null}}, "bias_initializer": {"class_name": "Zeros", "config": {}}, "kernel_regularizer": null, "bias_regularizer": null, "activity_regularizer": null, "kernel_constraint": null, "bias_constraint": null}}], "build_input_shape": [null]}}, "training_config": {"loss": {"class_name": "MeanAbsoluteError", "config": {"reduction": "auto", "name": "mean_absolute_error"}}, "metrics": [{"class_name": "MeanAbsoluteError", "config": {"name": "mean_absolute_error", "dtype": "float32"}}], "weighted_metrics": null, "sample_weight_mode": null, "loss_weights": null, "optimizer_config": {"class_name": "RMSprop", "config": {"name": "RMSprop", "learning_rate": 0.0010000000474974513, "decay": 0.0, "rho": 0.8999999761581421, "momentum": 0.0, "epsilon": 1e-07, "centered": false}}}}, "weightsManifest": [{"paths": ["group1-shard1of1.bin"], "weights": [{"name": "sequential_9/dense_48/kernel", "shape": [2596, 128], "dtype": "float32"}, {"name": "sequential_9/dense_48/bias", "shape": [128], "dtype": "float32"}, {"name": "sequential_9/dense_49/kernel", "shape": [128, 64], "dtype": "float32"}, {"name": "sequential_9/dense_49/bias", "shape": [64], "dtype": "float32"}, {"name": "sequential_9/dense_50/kernel", "shape": [64, 16], "dtype": "float32"}, {"name": "sequential_9/dense_50/bias", "shape": [16], "dtype": "float32"}, {"name": "sequential_9/dense_51/kernel", "shape": [16, 1], "dtype": "float32"}, {"name": "sequential_9/dense_51/bias", "shape": [1], "dtype": "float32"}]}]}